week5/img2text_best_text_bert.pth (torch, 920895 bytes, 4 tensors)

0.weight f4 [256, 768]
-0.021180777 0.028008075 -0.012359012 0.018305434 0.010694876 -0.008589316 0.028594911 0.013896122
-0.031514008 -0.00566861 -0.011586015 -0.008657802 0.0028361129 -0.023282707 0.030436164 0.020841658
-0.010987566 -0.035145584 -0.0075270766 0.008421929 0.022317288 -0.010183859 -0.0069358423 -0.030077407
0.023583641 0.004220575 0.013944329 -0.023894966 -0.00087279157 -0.02405243 0.018126613 0.0030610105
0.03200755 0.0255697 -0.0047766594 0.038311906 -0.022273114 -0.01828338 -0.019408967 0.016162153
-0.027662445 -0.009910281 0.006495025 -0.029129434 -0.015866823 0.0034585127 0.02417987 -0.022296423
-0.0030897586 -0.030328196 -0.016130595 0.03544749 0.029831262 -0.016615981 -0.025720026 -0.028192686
-0.012793895 -0.029793458 0.021685153 -0.0012896053 -0.030205783 -0.020020017 -0.025156403 0.015200653
-0.015386342 -0.018050848 -0.018238302 -0.025544522 -0.016656153 0.009137945 0.00072248734 0.030781077
-0.02552535 0.029728867 0.035066947 0.0013092011 0.019106496 -0.013182898 -0.0033623998 0.02269096
0.010364451 -0.024251278 -0.014767908 -0.003175076 -0.0118003655 0.011195997 0.037909623 0.005232385
0.026131516 0.028764611 0.032376915 0.028194252 0.021097805 0.03123447 0.027905332 0.0039058153
-0.0012359561 -0.018203331 -0.031841807 0.019525895 -0.025587406 0.014159026 0.012734032 0.018664137
-0.023760572 -0.030830206 0.007037407 0.037823215 -0.0012422081 0.017655894 -0.0018463305 0.0031887684
-0.001295036 0.0025416184 -0.023628473 -0.01540848 -0.034395494 -0.01720223 0.019373441 0.03195584
-0.021735284 -0.009188227 -0.030622955 -0.026577318 0.026306596 -0.03107735 0.02423471 -0.037516464
0.027562395 0.028841628 0.011608171 0.021845404 -0.006645589 0.03758106 -0.023476051 0.005027203
0.008463033 -0.007355234 0.020126728 -0.00622919 0.0033996745 0.02267187 0.026553031 0.0012146502
0.029573455 -0.011872744 0.034926362 -0.009650299 0.035324037 0.00834768 -0.023305064 0.026717763
0.01551341 -0.020110236 0.003032192 -0.036400367 -0.02955919 -0.018614464 -0.007253046 -0.032171417
0.0032723604 -0.03241664 -0.012393695 0.004269697 0.013092543 0.026580404 0.014346569 -0.03236674
0.014302486 0.0083401445 -0.013259173 0.01564158 0.018762976 0.018704157 0.014391413 0.038315568
-0.035316605 -0.02963016 0.020834792 -0.006103125 0.033911403 -0.02761667 0.024704607 -0.0034190367
-0.023813343 0.02169312 -0.010961455 -0.02802464 0.007806811 0.022113953 0.033954695 -0.015020129
0.0023123496 -0.031811357 0.022672681 -0.021893578 -0.019213038 0.01442333 0.027628822 -0.013573274
0.018825028 0.0037338058 0.019668682 0.029286 0.019464102 -0.02579341 -0.016361378 0.0022162697
-0.026604608 -0.011365701 0.014562495 0.029349608 0.03704374 -0.027294703 0.03661512 0.026428455
0.026025932 -0.0011271482 -0.02587142 -0.031054784 -0.0105453655 -0.002095732 -0.005963727 0.028428331
-0.025523398 0.004308818 -0.0056144157 -0.0067862896 0.034100506 0.0050325533 -0.030311232 -0.03608242
-0.03234693 0.026892709 -0.022925973 0.014315455 -0.014637566 0.017179882 -0.023911132 -0.03483296
0.010167363 -0.0144366035 0.030836398 0.0122906165 -0.02226207 -0.007020969 0.024362106 -0.03839369
-0.025817588 0.008164948 -0.029616406 0.0233164 -0.008207133 0.024522994 -0.0055728774 -0.021292167
00000000: 4f83 adbc 3171 e53c 747d 4abc 47f5 953c
00000010: 9039 2f3c 34ba 0cbc e03f ea3c 8fac 633c
00000020: d514 01bd bfbf b9bb 45d3 3dbc 74d9 0dbc
00000030: 14de 393b 60bb bebc 4355 f93c 20bc aa3c
00000040: 3105 34bc d1f4 0fbd b2a5 f6bb 21fc 093c
00000050: bfd2 b63c 33da 26bc 1046 e3bb e564 f6bc
00000060: 7b32 c13c c04c 8a3b c176 643c 60bf c3bc
00000070: 0dcc 64ba 9a09 c5bc 437e 943c 3c9b 483b
00000080: 591a 033d 8c77 d13c 8685 9cbb f2ec 1c3d
00000090: 1b76 b6bc 07c7 95bc 8eff 9ebc 7e66 843c
000000a0: 5a9c e2bc bb5e 22bc 38d4 d43b daa0 eebc
000000b0: 24fb 81bc 37a8 623b dd14 c63c fda6 b6bc
000000c0: 8c7d 4abb d672 f8bc 4f24 84bc 6331 113d
000000d0: b160 f43c 3d1e 88bc ceb2 d2bc 59f4 e6bc
000000e0: 7c9d 51bc 6911 f4bc 10a5 b13c f907 a9ba
000000f0: 1e72 f7bc 0501 a4bc cd14 cebc 290c 793c
00000100: ff16 7cbc 5fdf 93bc 7e68 95bc bf42 d1bc
00000110: 7c72 88bc 52b7 153c 4e65 3d3a 9928 fc3c
00000120: 8a1a d1bc f489 f33c 5ca2 0f3d 8099 ab3a
00000130: 3a85 9c3c 15fd 57bc b55b 5cbb 64e2 b93c
00000140: a9cf 293c 9eaa c6bc 18f5 71bc f014 50bb
00000150: 5256 41bc 6a6f 373c 1f47 1b3d 6d74 ab3b
00000160: c311 d63c c3a3 eb3c a89d 043d a2f7 e63c
00000170: 4ed5 ac3c 6edf ff3c b999 e43c b5f8 7f3b
00000180: ceff a1ba 271f 95bc 8e6c 02bd c5f4 9f3c
00000190: ae9c d1bc 42fb 673c 67a2 503c 88e5 983c
000001a0: 88a5 c2bc a18f fcbc 0c9a e63b 84ec 1a3d
000001b0: 96d1 a2ba 18a3 903c 9200 f2ba a8fa 503b
000001c0: 33be a9ba 4891 263b 8090 c1bc d973 7cbc
000001d0: 4ae2 0cbd b1eb 8cbc 0db5 9e3c 20e4 023d
000001e0: 320e b2bc 388a 16bc fedc fabc adb8 d9bc
000001f0: ee80 d73c ed95 febc df87 c63c ddaa 19bd
00000200: 88ca e13c 4745 ec3c 3330 3e3c 22f5 b23c
00000210: 3ec3 d9bb 99ee 193d d950 c0bc 3cbb a43b
00000220: 88a8 0a3c 2d04 f1bb cfe0 a43c 3c1e ccbb
00000230: 13cd 5e3b 5cba b93c be85 d93c e634 9f3a
00000240: 0844 f23c e685 42bc f20e 0f3d 4a1c 1ebc
00000250: f0af 103d b5c4 083c 43ea bebc 36df da3c
00000260: f52b 7e3c 39be a4bc bdb7 463b 8d18 15bd
00000270: 1d26 f2bc 5c7d 98bc f6aa edbb 2dc6 03bd
00000280: 1975 563b 50c7 04bd ed0e 4bbc d0e8 8b3b
00000290: 1b82 563c 26bf d93c df0d 6b3c fd92 04bd
000002a0: f954 6a3c 1aa5 083c 013d 59bc c522 803c
000002b0: d0b4 993c 7639 993c f6c9 6b3c c9f0 1c3d
000002c0: 25a8 10bd f3ba f2bc baad aa3c b9fc c7bb
000002d0: afe6 0a3d 5b3c e2bc 5161 ca3c eb11 60bb
000002e0: 3314 c3bc c5b5 b13c ad97 33bc ee93 e5bc
000002f0: 47d0 ff3b 5228 b53c 1414 0b3d fd16 76bc
00000300: ca8a 173b a04c 02bd 0fbc b93c 295a b3bc
00000310: a964 9dbc d54f 6c3c d755 e23c 7062 5ebc
00000320: f236 9a3c deb2 743b 3720 a13c 32e9 ef3c
00000330: 2e73 9f3c b44c d3bc 4c08 86bc d63e 113b
00000340: e8f1 d9bc 3537 3abc 8897 6e3c 976e f03c
00000350: 2dbb 173d 2499 dfbc bcf9 153d 7d80 d83c
00000360: 5634 d53c d1bc 93ba 4df0 d3bc 9a66 febc
00000370: 78c6 2cbc 8c58 09bb 5e6b c3bb 88e2 e83c
00000380: 7216 d1bc fc30 8d3b 22f9 b7bb 865f debb
00000390: f9ac 0b3d 1ee8 a43b 434f f8bc 29cb 13bd
000003a0: 377e 04bd 194e dc3c 40cf bbbc 5f8b 6a3c
000003b0: 67d2 6fbc d3bc 8c3c 47e1 c3bc 02ad 0ebd
000003c0: 0395 263c 8187 6cbc 9d9c fc3c 955e 493c
000003d0: f25e b6bc 2810 e6bb 0a93 c73c b442 1dbd
000003e0: 687f d3bc 46c6 053c 1b9e f2bc 0902 bf3c
000003f0: 3677 06bc 72e4 c83c af9c b6bb e96c aebc

0.bias f4 [256]
0.0016723571 0.02712887 -0.012352655 0.013970641 -0.024521641 -0.028317573 -0.023012226 0.022528121
0.022427805 -0.005483429 -0.028576126 0.018624656 -0.009434667 -0.011115185 0.00078138645 0.012206018
0.013708247 0.025141576 0.018708859 0.018327765 -0.03523632 -0.0014052042 0.010665458 -0.015346686
-0.024301937 -0.018305846 -0.0155916875 -0.03456454 0.031486824 -0.022467848 0.021223601 -0.008380724
-0.0067794314 0.035609573 -0.016330509 -0.029836655 -0.004442962 0.005746142 -0.006989478 0.0034919719
0.027067639 -0.018443096 0.023212686 -0.032582566 0.014858782 0.0277225 0.0012287215 -0.036100868
0.028134262 -0.037555393 0.017242853 -0.042383082 0.0063872784 0.020170053 -0.022190126 0.029290564
-0.01132557 0.0029802884 -0.0321978 -0.005428151 -0.014308329 -0.015482894 0.034395788 -0.018015228
-0.028975446 0.011626272 0.015393327 0.025113571 -0.001123584 0.008748795 -0.004399557 -0.038500007
0.021390218 -0.03064864 -0.03058595 0.00419375 -0.04253209 -0.022813398 0.035017688 -0.00017488592
0.021442873 0.0002016435 -0.0034739834 -0.028363619 -0.015314757 -0.030870877 -0.032671265 -0.019713802
0.019995708 0.02858161 0.01546011 -0.011412195 -0.026361898 0.008070802 -0.02384698 -0.009671185
0.007251612 -0.019766683 -0.006473474 -0.009278138 0.018124772 -0.041406933 0.013489929 -0.020221362
-0.003136703 -0.023594303 0.029854804 -0.03229265 -0.007052676 0.028406154 0.022635106 0.0123478295
-0.01354333 -0.034853995 0.015634626 0.0058696507 -0.019350389 -0.021269463 -0.0110105965 -0.0008994321
-0.03862856 0.04132743 0.023733445 0.031241959 -7.0277536e-05 0.009526067 -0.03374933 0.030623913
0.016532103 0.0030953381 0.00046473028 0.0046997475 -0.0029318696 0.028032817 0.024117704 -0.012964731
0.00036063726 -0.036905773 -0.0013973314 -0.024247676 -0.020183085 0.005472525 0.031274006 -0.030753743
-0.022315469 -0.022202324 -0.022706842 -0.028626101 0.01180273 0.01851505 0.019756885 0.0029472122
0.017522132 0.0027462777 0.0025009066 0.0034505883 0.022616137 0.0040976964 0.0076075015 -0.009886315
0.006760152 -0.023920212 -0.012059132 -0.037738375 0.019822566 -0.01639966 -0.032919344 -0.0047994317
0.009808529 -0.0042356313 0.008867171 -0.0064548454 -0.017340306 0.0043231025 0.042261895 -0.029903606
-0.02432954 -0.009347756 -0.027663896 0.021853086 0.024629189 0.011652475 -0.030699477 -0.0013193897
0.022143451 0.021066716 0.0069786645 0.020416167 0.011724539 -0.019980172 0.025227066 -0.034205027
-0.0025856544 0.027058046 -0.028188452 -0.014261261 -0.025851915 -0.020394469 0.013849166 -0.02213278
0.008677795 0.000956848 -0.03045995 -0.034326017 -0.004694774 0.012228099 -0.02297178 -0.021217134
0.020703593 -0.02359154 -0.010827906 0.03693829 0.013157312 0.02452711 -0.04164189 0.0042725876
0.000692406 0.025962675 0.017138083 0.023139587 0.016922537 0.039423276 -0.004535785 -0.021855677
-0.006093999 -0.031965494 -0.02123349 -0.01427239 -0.023582364 0.028441675 0.026250673 -0.010915804
-0.0001930287 -0.023075413 0.019565394 -0.003016748 -0.003323176 -0.00799137 -0.0015214931 -0.031036459
-0.03575131 0.0014278966 -0.0023783264 -0.030717582 -0.015790043 -0.035734326 0.013634311 0.01467252
-0.045011234 -0.033052552 0.007812043 -0.015289022 0.008443135 -0.0024322344 0.0033775643 -0.011842874
00000000: fe32 db3a 5d3d de3c ca62 4abc 1ee5 643c
00000010: 9ce1 c8bc 41fa e7bc 2384 bcbc e58c b83c
00000020: 84ba b73c 56ae b3bb 7b18 eabc bc92 983c
00000030: dd93 1abc 771c 36bc f5d5 4c3a c0fb 473c
00000040: 8e98 603c b5f5 cd3c 5243 993c 1c24 963c
00000050: f653 10bd d42e b8ba 2cbe 2e3c ab70 7bbc
00000060: db14 c7bc 24f6 95bc 4774 7fbc 8c93 0dbd
00000070: 54f8 003d 7e0e b8bc 1edd ad3c 4e4f 09bc
00000080: fe25 debb 58db 113d 8fc7 85bc 006c f4bc
00000090: 4496 91bb 224a bc3b fe07 e5bb 91d9 643b
000000a0: f4bc dd3c fa15 97bc 8828 be3c 4c75 05bd
000000b0: 4072 733c 4c1a e33c 0d0d a13a 81de 13bd
000000c0: d379 e63c afd3 19bd e240 8d3c e299 2dbd
000000d0: 604c d13b ab3b a53c 11c8 b5bc c4f2 ef3c
000000e0: e28e 39bc f150 433b d7e1 03bd a2de b1bb
000000f0: 7b6d 6abc f7ab 7dbc 99e2 0c3d ac94 93bc
00000100: ea5d edbc 1f7c 3e3c 4b34 7c3c faba cd3c
00000110: 3945 93ba 1b57 0f3c 292a 90bb 2fb2 1dbd
00000120: 8a3a af3c db12 fbbc 638f fabc ba6b 893b
00000130: 2136 2ebd 2ae3 babc b56e 0f3d 9561 37b9
00000140: f7a8 af3c 4470 5339 c5ab 63bb d25a e8bc
00000150: bfea 7abc ece4 fcbc 4ed2 05bd d77e a1bc
00000160: 0ace a33c fb23 ea3c 674c 7d3c 37fa 3abc
00000170: e8f4 d7bc 663b 043c be5a c3bc e473 1ebc
00000180: ee9e ed3b bded a1bc 701f d4bb 5503 18bc
00000190: 677a 943c 519a 29bd dd04 5d3c 45a7 a5bc
000001a0: 2591 4dbb d748 c1bc 1092 f43c 4c45 04bd
000001b0: 221a e7bb 06b4 e83c 426d b93c 8d4e 4a3c
000001c0: d8e4 5dbc 10c3 0ebd 3014 803c 3356 c03b
000001d0: b584 9ebc 4c3d aebc ca65 34bc dec7 6bba
000001e0: fb38 1ebd f446 293d a46c c23c 23ef ff3c
000001f0: f761 93b8 3913 1c3c bd3c 0abd 00df fa3c
00000200: 556e 873c 28db 4a3b 0ba7 f339 5700 9a3b
00000210: 9c24 40bb 14a5 e53c 7e92 c53c 066a 54bc
00000220: ea13 bd39 822a 17bd a926 b7ba 10a3 c6bc
00000230: ff56 a5bc de52 b33b 2c19 003d 46ef fbbc
00000240: eece b6bc a6e1 b5bc b303 babc 4981 eabc
00000250: 3d60 413c e0ac 973c 31d9 a13c 0426 413b
00000260: 938a 8f3c e5fa 333b 40e6 233b 4423 623b
00000270: 7a45 b93c f845 863b 5948 f93b 36fa 21bc
00000280: 4484 dd3b 52f4 c3bc aa93 45bc 8e93 1abd
00000290: ef62 a23c 9458 86bc 6fd6 06bd 8d44 9dbb
000002a0: f4b3 203c 0dcb 8abb 9c47 113c 2b83 d3bb
000002b0: 420d 8ebc d0a8 8d3b cf1a 2d3d 68f8 f4bc
000002c0: be4e c7bc 5527 19bc 659f e2bc 3e05 b33c
000002d0: 27c3 c93c 06ea 3e3c 787d fbbc 5fef acba
000002e0: 2f66 b53c 1b94 ac3c 48ad e43b ce3f a73c
000002f0: 4818 403c 75ad a3bc fea8 ce3c 921a 0cbd
00000300: 1574 29bb d6a8 dd3c 78eb e6bc 10a8 69bc
00000310: 65c7 d3bc 4d12 a7bc 9de7 623c ce4f b5bc
00000320: 4f2d 0e3c fbd4 7a3a 2587 f9bc 7099 0cbd
00000330: 9ed6 99bb 5d58 483c 502f bcbc 8ecf adbc
00000340: 959a a93c 0c43 c1bc 8867 31bc 9b4c 173d
00000350: c491 573c 14ed c83c b090 2abd 1001 8c3b
00000360: 9582 353a adaf d43c 2a65 8c3c 3b8f bd3c
00000370: 22a1 8a3c 4d7a 213d eca0 94bb ad0a b3bc
00000380: 2bb0 c7bb 40ee 02bd dbf1 adbc bed6 69bc
00000390: cd2f c1bc 84fe e83c a70b d73c 33d8 32bc
000003a0: bf67 4ab9 a608 bdbc 9b47 a03c a2b4 45bb
000003b0: a4c9 59bb 3cee 02bc d66c c7ba 2c40 febc
000003c0: f76f 12bd 4228 bb3a b2dd 1bbb 70a3 fbbc
000003d0: 1f5a 81bc 285e 12bd 7262 5f3c 0265 703c
000003e0: b35d 38bd 1d62 07bd 2bfc ff3b ce7e 7abc
000003f0: 1355 0a3c 1f66 1fbb 205a 5d3b 9d08 42bc

3.weight f4 [128, 256]
0.0033840195 -0.09677168 -0.015974317 0.0041204393 -0.034748618 -0.05380326 0.007633031 0.041977998
-0.06229262 0.07435852 -0.02537627 -0.047902197 -0.027152693 -0.114325374 -0.044090666 0.03875224
-0.022795785 -0.029724874 -0.06594694 -0.04319936 -0.07315398 -0.020214954 0.07829394 -0.050936397
-0.027702896 -0.0065133027 -0.044713885 -0.023563571 0.054114986 -0.0272721 0.021627624 -0.071671434
-0.022903778 -0.03358342 0.0018019971 0.028664079 0.07760806 0.050328724 0.037655313 -0.048139002
-0.091162026 -0.07053858 0.02672957 -0.05473933 0.05799118 0.03255609 -0.027814418 -0.014562192
-0.036723383 0.059114754 0.0034076525 -0.004495488 -0.071580365 -0.028532885 -0.014438267 0.03849039
-0.04361654 -0.02914937 -0.05701519 -0.11151647 -0.026273848 0.08046864 -0.084790826 -0.07689213
0.020286907 -0.002947378 -0.026254257 -0.08579138 0.0674828 0.057195313 0.0006780572 -0.03969041
0.008633628 0.037553795 -0.00023776358 -0.011613509 0.0016946817 -0.01998224 0.028261887 0.0036136096
0.062084265 -0.09495686 0.034944147 0.06306033 -0.052119408 -0.018488899 -0.047447875 -0.032284115
-0.050328664 0.03828613 -0.015736694 -0.057206575 -0.034703154 -0.046056602 0.062257297 0.049951047
0.025090927 0.008556141 0.035328582 0.004868512 0.0042507155 -0.0077592656 0.026318843 -0.11217012
-0.079742216 -0.044418413 -0.015568955 0.04815469 -0.098055035 0.024709962 -0.08270246 0.0002683946
0.03496291 -0.0629942 0.058895323 -0.021750221 0.016963312 -0.028900174 0.0441131 -0.016157541
-0.052148044 -0.02075261 0.017341383 -0.009330677 -0.0588678 -0.047382742 -0.050176222 -0.088407725
-0.04845396 -0.032426566 0.04050457 0.055090338 0.113521926 -0.041821785 0.00689215 -0.10975139
0.042079173 -0.03586447 -0.045132905 0.0015596814 0.04204807 0.0375879 -0.08480281 0.02806585
-0.10705843 0.043653026 0.07327882 0.043804534 0.02200883 0.021082783 -0.035636526 -0.02520997
0.028908929 0.0008969391 -0.042332835 0.022275826 -0.04058114 0.0036424666 -0.043719724 -0.004343175
-0.03341542 0.03611279 0.013807417 0.06272344 0.066298336 -0.03266893 -0.044640053 -0.046092942
-0.045290783 -0.021733629 -0.035998505 0.01851368 0.022012537 -0.02176769 -0.012475548 0.03786718
-0.08456978 -0.077500716 -0.054675933 0.022972798 -0.02748056 -0.004878237 0.0051432876 0.012365599
0.024048736 -0.029261472 -0.0045589046 -0.015515029 -0.06621033 0.04620223 -0.105065815 -0.041312195
-0.00017254257 -0.037028242 -0.050887946 0.070808694 0.0026858933 -0.031428684 -0.043896124 0.079075664
-0.040019263 -0.13428222 -0.042166047 0.05571452 -0.044788994 -0.05257863 -0.004086212 0.024418449
-0.1143313 0.0042932956 0.03869816 -0.0434069 -0.015416169 -0.023991501 -0.02930738 -0.059164878
0.0053358446 -0.031274125 -0.064061016 -0.08804425 -0.027164591 -0.04766497 -0.04784039 0.04361488
-0.13818386 -0.091191225 -0.030471869 0.03355297 -0.021688484 -0.00088376197 0.024759779 -0.039763242
-0.021726716 -0.0075949463 -0.051643893 0.041302837 0.0661694 0.03567979 -0.015704978 0.05034341
0.049238056 -0.009322595 -0.02954803 0.0552123 0.060708523 -0.06302184 -0.057299763 0.054553058
0.015708486 0.04144547 -0.059637558 -0.07558457 0.09159494 0.032848887 0.06373707 0.04297182
00000000: 6dc6 5d3b 3b30 c6bd 92dc 82bc c004 873b
00000010: 9154 0ebd cf60 5cbd 811e fa3b 1ff1 2b3d
00000020: 8c26 7fbd 4849 983d e5e1 cfbc 1835 44bd
00000030: 536f debc 6c23 eabd 6a98 34bd abba 1e3d
00000040: 3abe babc 9481 f3bc 300f 87bd d0f1 30bd
00000050: c1d1 95bd d599 a5bc 9358 a03d afa2 50bd
00000060: 2ff1 e2bc 8b6d d5bb e825 37bd 6408 c1bc
00000070: ada7 5d3d bd69 dfbc 6a2c b13c 79c8 92bd
00000080: b4a0 bbbc c58e 09bd fd30 ec3a eed0 ea3c
00000090: f9f0 9e3d 7e25 4e3d 753c 1a3d 672d 45bd
000000a0: 28b3 babd 8876 90bd f9f7 da3c 5936 60bd
000000b0: 2988 6d3d 8959 053d 10db e3bc 4396 6ebc
000000c0: 426b 16bd 5022 723d ec52 5f3b e34e 93bb
000000d0: ba98 92bd ccbd e9bc 7b8e 6cbc 19a8 1d3d
000000e0: 42a7 32bd a9ca eebc c388 69bd bf62 e4bd
000000f0: 413c d7bc becc a43d d0a6 adbd 9f79 9dbd
00000100: ba30 a63c cc28 41bb 2b13 d7bc 64b3 afbd
00000110: 6c34 8a3d a245 6a3d a6bf 313a 6992 22bd
00000120: 0f74 0d3c 02d2 193d 2d50 79b9 9646 3ebc
00000130: 1520 de3a cbb1 a3bc 7985 e73c 4fd2 6c3b
00000140: 124c 7e3d be78 c2bd 9821 0f3d c625 813d
00000150: 297b 55bd 0876 97bc b458 42bd 593c 04bd
00000160: 6e25 4ebd ebd1 1c3d 3dea 80bc 7151 6abd
00000170: e524 0ebd d9a5 3cbd 8201 7f3d 7899 4c3d
00000180: 7d8b cd3c 0e2f 0c3c b4b4 103d 0a88 9f3b
00000190: 9649 8b3b 7041 febb 9d9a d73c 73b9 e5bd
000001a0: e34f a3bd 15f0 35bd ee14 7fbc da3d 453d
000001b0: 14d1 c8bd 8c6c ca3c e85f a9bd 50b7 8c39
000001c0: 4535 0f3d 1a03 81bd 393c 713d 852d b2bc
000001d0: a5f6 8a3c 0fc0 ecbc f0af 343d d25c 84bc
000001e0: 3099 55bd 6101 aabc 840f 8e3c b2df 18bc
000001f0: 5d1f 71bd 6814 42bd 9585 4dbd 1c0f b5bd
00000200: a977 46bd b8d1 04bd 1fe8 253d 68a6 613d
00000210: 2f7e e83d 524d 2bbd 8bd7 e13b 56c5 e0bd
00000220: 365b 2c3d 9fe6 12bd 48dd 38bd 396e cc3a
00000230: 993a 2c3d c5f5 193d 18ad adbd 5aea e53c
00000240: 7341 dbbd 84cd 323d 3513 963d 626c 333d
00000250: dd4b b43c cdb5 ac3c 9bf7 11bd 2485 cebc
00000260: 6bd2 ec3c 9020 6b3a 3265 2dbd cb7b b63c
00000270: 6938 26bd 73b6 6e3b 7413 33bd 3151 8ebb
00000280: 9cde 08bd 01eb 133d 8138 623c 2675 803d
00000290: 6cc7 873d dbcf 05bd 7dd8 36bd f4cb 3cbd
000002a0: d482 39bd b90a b2bc 2b73 13bd 00aa 973c
000002b0: a353 b43c 2852 b2bc 3e66 4cbc 9e1a 1b3d
000002c0: ec32 adbd b2b8 9ebd dff3 5fbd 7331 bc3c
000002d0: e91e e1bc 9ed9 9fbb 0689 a83b 1599 4a3c
000002e0: db01 c53c c1b5 efbc dd62 95bb c032 7ebc
000002f0: 4899 87bd 8d3e 3d3d bf2c d7bd fa36 29bd
00000300: 8bec 34b9 edaa 17bd e16f 50bd 2604 913d
00000310: d005 303b 5dbb 00bd 6ccc 33bd 6cf2 a13d
00000320: 3deb 23bd 4781 09be 4eb6 2cbd e934 643d
00000330: aa74 37bd b15c 57bd a1e5 85bb 3309 c83c
00000340: 8726 eabd c6ae 8c3b f681 1e3d 6fcb 31bd
00000350: 1994 7cbc d389 c4bc 0816 f0bc df56 72bd
00000360: 4fd8 ae3b 4c19 00bd 6c32 83bd 8b50 b4bd
00000370: 4788 debc 583c 43bd 49f4 43bd 84a5 323d
00000380: 1280 0dbe 77c2 babd 24a0 f9bc d76e 093d
00000390: 0cac b1bc 43ac 67ba 05d5 ca3c c8de 22bd
000003a0: 3afc b1bc 07df f8bb 8c88 53bd 2a2d 293d
000003b0: d383 873d f924 123d baa7 80bc e434 4e3d
000003c0: d8ad 493d ccbd 18bc b60e f2bc 4b26 623d
000003d0: 80a9 783d 9811 81bd 28b3 6abd 0773 5f3d
000003e0: 15af 803c bac2 293d 8346 74bd 15cc 9abd
000003f0: 2196 bb3d 8e8c 063d 9588 823d 3803 303d

3.bias f4 [128]
0.056423392 0.066430636 0.011657475 0.011003295 0.032187596 -0.006639474 0.033337336 0.024225408
-0.043624833 -0.02638934 0.064749494 -0.0056235422 0.050210275 -0.030103315 0.0016524955 0.06989533
-0.0041144276 0.013347768 -0.04431505 0.007336819 0.01020575 0.074359044 -0.0003151652 -0.087148845
-0.0011333858 -0.022664929 0.079196446 -0.003511405 0.023224046 0.023147676 -0.038152236 0.025098033
0.031240044 -0.05076105 0.02929661 0.04705052 0.041831404 -0.028531814 -0.041231457 0.056558292
0.054457985 -0.020074006 -0.06838981 0.026433123 -0.05656211 0.023218537 -0.082437165 -0.026646813
0.034063324 0.043560006 0.088668115 -0.028516842 0.022829272 0.033939682 -0.003462673 0.004243976
0.0205521 0.067854874 -0.02464799 -0.051365893 0.056087054 0.027326325 0.030573271 -0.047332827
-0.013626211 -0.022803297 -0.013044432 -0.019208796 0.06888606 -0.06266939 0.07122833 -0.024103532
0.05127308 0.0054113423 0.035369337 -0.06278392 0.010630495 -0.0034100572 -0.010101408 0.022478342
0.06719369 0.053882614 -0.030465439 -0.036107436 0.011054532 0.07352938 0.04241733 0.032137897
0.021222368 0.047599245 -0.026089864 -0.037231155 0.029184638 -0.047046643 -0.061511375 -0.013537225
-0.013327436 0.01503625 0.00412514 -0.007167999 -0.034322314 0.019023508 0.0403739 -0.004988515
0.035318006 0.00417533 -0.033452526 -0.028997002 -0.014100574 0.0044385763 0.0011433687 -0.08972895
0.010550557 0.0037354494 -0.059290133 -0.026505131 -0.027355682 0.031994697 0.011651257 0.024470143
-0.045975354 0.02745363 -0.016223095 -0.029172895 -0.036315028 0.06077512 -0.03899375 -0.023314232
00000000: 371c 673d c90c 883d fefe 3e3c 2a47 343c
00000010: 24d7 033d f28f d9bb bb8c 083d 5d74 c63c
00000020: f4af 32bd 752e d8bc 629b 843d b145 b8bb
00000030: 4aa9 4d3d 3a9b f6bc 8c98 d83a 4825 8f3d
00000040: 52d2 86bb 99b0 5a3c b383 35bd b369 f03b
00000050: 0536 273c 8e49 983d c23c a5b9 187b b2bd
00000060: 1e8e 94ba cdab b9bc bf31 a23d 9a1f 66bb
00000070: 5b40 be3c 32a0 bd3c 8545 1cbd 649a cd3c
00000080: 1feb ff3c d2ea 4fbd 72ff ef3c 0cb8 403d
00000090: 6857 2b3d 8dbb e9bc 51e2 28bd aba9 673d
000000a0: 560f 5f3d 3e72 a4bc f50f 8cbd 478a d83c
000000b0: acad 67bd cd34 be3c d1d4 a8bd 6b4a dabc
000000c0: fc85 0b3d fa6b 323d a197 b53d 279c e9bc
000000d0: 7404 bb3c 5604 0b3d 03ee 62bb 0d11 8b3b
000000e0: e15c a83c 7ff7 8a3d 95ea c9bc 0b65 52bd
000000f0: 8abb 653d 75db df3c cc74 fa3c 11e0 41bd
00000100: 7940 5fbc fbcd babc 50b8 55bc c45b 9dbc
00000110: 2214 8d3d cf58 80bd 29e0 913d c574 c5bc
00000120: b903 523d a151 b13b 70df 103d db94 80bd
00000130: 872b 2e3c 447b 5fbb 6080 25bc 8024 b83c
00000140: d89c 893d 04b4 5c3d a892 f9bc 64e5 13bd
00000150: 111e 353c 9296 963d cbbd 2d3d 07a3 033d
00000160: 88da ad3c 6df7 423d 69ba d5bc b27f 18bd
00000170: 9f14 ef3c fbb3 40bd 5af3 7bbd 3dcb 5dbc
00000180: 515b 5abc 9b5a 763c 2f2c 873b 89e1 eabb
00000190: 8e95 0cbd 30d7 9b3c 1a5f 253d b276 a3bb
000001a0: 9da9 103d 35d1 883b 8405 09bd 1f8b edbc
000001b0: 1806 67bc 7a71 913b 16dd 953a d0c3 b7bd
000001c0: 3edc 2c3c 71ce 743b 36da 72bd 4a21 d9bc
000001d0: 0619 e0bc df0c 033d eae4 3e3c 9c75 c83c
000001e0: a750 3cbd 6fe6 e03c 4ce6 84bc fffb eebc
000001f0: 11bf 14bd 55ef 783d e9b7 1fbd 7dfd bebc
